test/nets/onnx/mnist/mnist_relu_9_100.onnx (onnx, 602593 bytes, 18 tensors)

10.bias f4 [100]
00000000: ec9c a23d 3b29 2d3e b143 e73d 3d12 2a3d
00000010: ed15 ca3d d2d3 32bc 1a5c 143d 8ebb 1a3d
00000020: e5cb 5ebd ae6a 253d 76d6 6d3e 4b3d 233e
00000030: 7ac8 4f3d 29a6 903c 0c56 ec3c 092f 2a3e
00000040: 5cd9 253d c7a1 28bd b763 f03d 266b 173e
00000050: 7636 8dbb a135 213d 3383 253d 19d1 aa3d
00000060: 83e4 07bd 2a18 0f3e 8da8 8f3d 1005 0e3d
00000070: 787c d03d d747 623d cb93 87bd 6255 183e
00000080: 20c7 d33c f818 093e 3307 173d 0379 38bc
00000090: 550c 3f3d 647c 053e 3fb0 f73d 6b5c 943c
000000a0: 72cf 033e dd0e 873d 9981 12bd 33c5 cd3a
000000b0: 0ff5 2fbe 279a 653d a806 4c3d 8092 043e
000000c0: 0a58 903e 574b 2a3d a552 703d 79d2 ac3d
000000d0: 5a88 b13d 9a9f bb3c b03a af3d 6418 293d
000000e0: 0361 a33c 9dda 543b 99ff e13c 9907 563d
000000f0: 6ecc f23d 9e28 8f3d d105 173c ea74 283d
00000100: e61f b03d 8157 2f3c 62ce b33d 4c57 253d
00000110: d3fe 9f3d dccf d73d b7b8 6d3d 200c ea3c
00000120: cae8 8d3d 9498 de3d 1261 a6bc 2b81 513e
00000130: ec33 5a3d c92c 2c3e 00c6 063e dc4d 783d
00000140: b60e 923d 26c1 a0bd fa74 8f3d 84ce 7a3d
00000150: 6a41 033e 5d3e c93d ac58 c23d 411f 3f3d
00000160: 2f16 223d 1d35 523d 32ac 7f3d 7f09 583d
00000170: cdb9 103e 2b67 8c3c 861a 343d 23d5 a23c
00000180: f985 f53d af66 883d 1e67 1c3d a5f4 643d
0.07940087 0.1691026 0.11292208 0.0415213 0.09867463 -0.01091476 0.036220647 0.037776522
-0.054393668 0.04038494 0.23226342 0.1594135 0.0507283 0.017657356 0.028849624 0.16619505
0.040490493 -0.041169908 0.11737769 0.14786968 -0.0043094708 0.039357785 0.040408324 0.083406635
-0.03317691 0.13974062 0.070145704 0.034672797 0.101799905 0.055244293 -0.06619986 0.14876321
0.025851786 0.13388431 0.0368721 -0.01125932 0.04664262 0.13035733 0.12094163 0.018110475
0.12872103 0.06594632 -0.035768125 0.0015699029 -0.17183326 0.056055214 0.049811035 0.1294651
0.28192168 0.041575756 0.058672566 0.08438582 0.08668585 0.022903252 0.085561156 0.041283026
0.01994372 0.0032478936 0.027587699 0.05225334 0.11855398 0.06990169 0.009217695 0.041127123
0.08599834 0.010702015 0.08779599 0.040366456 0.07812276 0.10537693 0.058037486 0.028570235
0.069291666 0.10868946 -0.020309959 0.2045943 0.053272173 0.16813959 0.13161469 0.060621127
0.07131712 -0.0784934 0.070047334 0.061232105 0.12817922 0.09826348 0.09489569 0.046660665
0.039571937 0.051320184 0.062420078 0.05274343 0.14133377 0.017139038 0.043970607 0.019877022
0.11988444 0.0666021 0.038184278 0.055897374

10.weight f4 [100, 100]
00000000: e3fa 0d3e 00aa b9bd 0c01 b53d 08c7 c63d
00000010: 312f 09be 3449 813b accb 6bbd 8906 413e
00000020: eb5e 36bd 0920 283d da46 2b3b e5c3 d83d
00000030: fef4 8c3c b5b6 8cbc 041b a3bd 6a87 c1bd
00000040: 50d9 0c3e cfeb a9bc 576b 0bbd 7837 ebbd
00000050: 9836 b33d d8f7 67bd 8ad1 0f3d 0778 ebbd
00000060: c7af db3d 2bd1 1d3e 0379 503d a39a 02be
00000070: 9483 e6bc 8c3a eabd 4422 52be ee41 d7b8
00000080: eceb d2bd 20fa babd c4a9 4b3d 4274 973d
00000090: df0c 5dbd a1b3 16be 05d6 8ab9 6b11 59bd
000000a0: 0135 693d bd18 2fbe c926 13be 299c 1dbe
000000b0: 69c2 1c3b 1494 22bd 38c4 2bbe 6b14 9a3d
000000c0: f51f 9fbd 3574 29bd 1df2 63bd 1cef 293e
000000d0: f786 4cbd 2fb4 263e 7473 08bd 8d6c 513d
000000e0: cb81 e63c afeb a0bd 9296 cf3d cf59 933c
000000f0: b9ed 20bd 1c10 d93d 3fdd 28bc aed2 b03d
00000100: 6d24 823d 350e 0cbe 0eab 813d 0d36 32be
00000110: f9c8 febd b74f 28be ba75 bfbc b0fb 21bc
00000120: 0564 f13d 4ff3 0ebd 9d87 2e3e 51d0 cebc
00000130: 5191 ccbd d991 823c 9796 303e 3848 793d
00000140: 7a43 d43d f48a a3bd 2f7f de3c 501e 40bd
00000150: 8a76 533c 8f78 97bd 503c 543d 263c 6bbd
00000160: ff5f b5bc 4aeb a13d 1c82 49be d622 1dbe
00000170: cdcb 013e 773d 39bc e718 303d 140d a4bd
00000180: 3580 83bd b85b b1bd 5bf3 96bd 72e8 ecbc
00000190: b922 47ba 5196 87bd d508 763d 7fa7 19be
000001a0: 2d89 1f3d aa8f 27bd c2cd a53d 8353 2abe
000001b0: 8346 223e b3f8 38be 5868 25be da45 673d
000001c0: 1065 1c3c cc67 72bc 85cb 313d 19f5 853c
000001d0: 3176 73bd f413 53be 9991 f3bb c6e1 443e
000001e0: 92ec fa3d 3ecf 42bc 1e7a 08bd 42b9 a4bc
000001f0: 2eb5 87bc 0fb5 753d 1b44 36be 37c4 f3bc
00000200: 83d1 0ebe a415 afbd b911 643d bc4d 8fbd
00000210: b744 573e 946e 173e 627f 89bc d760 c0bc
00000220: 379c c0bd 9506 18bc 3b57 89bc e2d2 2dba
00000230: 87f5 9b3d 2542 a83d 4302 05be e4f2 0abe
00000240: 328b 923d 7a1a 2b3d 770d d43d f1e4 c7bd
00000250: 993e d7bc b01c 24bb eac1 983d 8f97 883c
00000260: 942f c63d e19a 643d 15ae 0fbe c892 edbc
00000270: e56f f23d 505a 5c3d 9109 0ebe 5fde e1bd
00000280: e6a2 b73b ef0d d1bd f8ba 743d 6c75 39bd
00000290: 3c20 023e cf87 f93d 4b8d 2f3c 86c1 013e
000002a0: 4fd5 843c 5464 493e f485 113e c936 d93d
000002b0: 35d0 2dbd 13b4 8abc bfed 253d 96da 1f3d
000002c0: 701e 36be 86cf dbb9 cbb7 25bd bdec 743d
000002d0: cba1 f43c f3cf 1dbd a611 a0bd 1349 8cbc
000002e0: a98f a4bd 22a3 80bc 9f90 b9bd e548 573e
000002f0: 6db8 2f3e 1618 6eba 99c9 863c b835 363e
00000300: 969a 203b 5c0a ce3d 76a8 a13d 5db0 1d3c
00000310: 5d99 4a3d 0f76 73bc 794e 603d 0d75 1ebe
00000320: 05b6 02bd 25ac 1a3d c9fa 923d 5a45 dc3d
00000330: 8c2f 5fbd 0640 79bd 00b6 28be dec7 223c
00000340: ff93 8bbb cce7 aa3d 1551 6f3d 4b22 13be
00000350: b609 ddbd 5dfb a7bc ba0b 943d 91a1 32be
00000360: 7fab 50bc f453 a8bc 46ec 0ebe 17b5 2abd
00000370: 8286 e23d bc1f 9cbd 4b4a 933d 7ecd 1ebd
00000380: 9842 babc 5454 18bd 0449 493e 4dc2 763d
00000390: 0cd1 1b3d a788 9bbd 0068 5a3c 549c 903d
000003a0: 562c 79bd 4d5c 01be 66ff f43d 28fa 35bd
000003b0: 9b51 193e 7955 49bb 29f6 9cbd 6ec2 3d3e
000003c0: e8c2 163e 6dad 2dbe fcee 20bd 4b5e 06bd
000003d0: 2f3d c1bd e073 4ebd d7e3 fc3c 5c1e adbd
000003e0: ff6f 04bd 5f13 15bd 1ac5 41bd a031 81bd
000003f0: 488d 3f3e b064 fe3c cadb 7cbd 5b07 b5bc
0.13865237 -0.09065628 0.0883809 0.09705931 -0.13396908 0.003945494 -0.057567284 0.18850149
-0.044524115 0.041046176 0.002613476 0.10584239 0.017206665 -0.017176965 -0.07964137 -0.09449656
0.13754773 -0.020742325 -0.034037914 -0.11485189 0.08750647 -0.056632847 0.03511194 -0.11497503
0.10726886 0.15411822 0.050896656 -0.12754302 -0.028138913 -0.11436948 -0.20520884 -0.00010264279
-0.10298905 -0.09129739 0.049722448 0.07395221 -0.053967353 -0.1471696 -0.00026480868 -0.052995127
0.056935314 -0.1709928 -0.14370264 -0.15391602 0.0023919588 -0.039692 -0.1677407 0.07523426
-0.07769767 -0.04137059 -0.05565082 0.16595119 -0.0499334 0.16279672 -0.03331323 0.051128913
0.028138062 -0.07857453 0.10136141 0.01798716 -0.03928921 0.10598776 -0.010306655 0.08633934
0.06354604 -0.13677295 0.06331454 -0.17403431 -0.12440676 -0.16436659 -0.023371566 -0.009886667
0.11786655 -0.034900006 0.1704392 -0.025245817 -0.099886544 0.015938686 0.17244945 0.06085989
0.10364433 -0.079854876 0.027160255 -0.04690391 0.01290668 -0.073960416 0.05181533 -0.05743041
-0.022140501 0.07906206 -0.19678539 -0.1534532 0.126754 -0.011306158 0.0429925 -0.08010307
-0.06420938 -0.08660072 -0.07370635 -0.028919432 -0.00075964216 -0.066204675 0.060067017 -0.15005301
0.03894918 -0.040908493 0.08095886 -0.1663342 0.1584721 -0.18063621 -0.16153085 0.0564631
0.00954558 -0.014795255 0.043406982 0.016352223 -0.059438888 -0.2061308 -0.007433128 0.1922675
0.122521535 -0.011890231 -0.033319585 -0.020107869 -0.016565885 0.059987124 -0.17799418 -0.029756648
-0.1394711 -0.085490495 0.055680964 -0.069972485 0.21022306 0.14788276 -0.016784374 -0.023483677
-0.094047956 -0.009278913 -0.016765228 -0.000663085 0.0761519 0.08215741 -0.12989144 -0.13569218
0.07155456 0.041773297 0.10354131 -0.09760464 -0.026274966 -0.0025041513 0.07458861 0.016673831
0.096770436 0.055811767 -0.14031251 -0.029000655 0.118377484 0.053797066 -0.13870837 -0.11028742
0.005604136 -0.10207736 0.05974862 -0.045277998 0.12707609 0.121841066 0.010714839 0.1267148
0.016214995 0.19667178 0.14211255 0.106061526 -0.04243489 -0.01693157 0.040509935 0.03902682
-0.17785048 -0.00041925552 -0.04045848 0.059796084 0.029862305 -0.038528394 -0.07815866 -0.017124688
-0.080352135 -0.015702788 -0.090607874 0.21023901 0.17160197 -0.00090825686 0.016453551 0.1779393
0.0024506203 0.1006057 0.078934595 0.009624568 0.049462665 -0.01485969 0.054762337 -0.15474339
-0.03191187 0.037761826 0.0717674 0.10755415 -0.054488704 -0.060852073 -0.16475677 0.009935347
-0.004259586 0.08344993 0.058426935 -0.1436855 -0.10792868 -0.020505602 0.07228799 -0.17444445
-0.0127362 -0.020547844 -0.13957319 -0.041676607 0.110608116 -0.0762324 0.07191905 -0.03877019
-0.022736832 -0.037189797 0.1965676 0.060243893 0.03804116 -0.07594424 0.01333046 0.07061067
-0.060833298 -0.12632866 0.11962776 -0.04442802 0.14972536 -0.0030721112 -0.07664139 0.185312
0.14722788 -0.16960688 -0.039290413 -0.03280477 -0.09435498 -0.050403476 0.030870361 -0.08453056
-0.03233337 -0.036395427 -0.04730711 -0.06308293 0.18706238 0.03105387 -0.061733045 -0.022098234

12.bias f4 [100]
00000000: af2b d03d fbc0 393d 028c 093e d514 973d
00000010: d117 7e3d 7572 88bb af63 acbc 385f 3f3e
00000020: 79f5 af3d 4206 0c3d 6655 9a3d 6953 f83d
00000030: bec9 8c3d eae8 053e 2b14 393d 7acc a93a
00000040: 6928 9c3c d61b 8d3b b37a 803e 9be1 c73d
00000050: 48ef 07bd 03d7 8c3d 819a ae3d fe7a 423d
00000060: 6b10 3e3e ed63 863c 07ce 0c3b b583 873d
00000070: 95fd c03d 5a92 463e 7074 203e 054f df3d
00000080: 7917 a03d 138e e53d fafa cd3d 2282 6f3d
00000090: 4762 373d c22f 323d d465 a63d 202c ea3c
000000a0: c42e a13c 6ad9 b93d 88a3 a13d 679b 16bc
000000b0: f3e7 2c3b 4c4e ae3d e9bb 4b3e 1442 3c3d
000000c0: 140d a7ba 68ad 603c a264 183d f369 343d
000000d0: 2e7c 6d3d 3e40 a0bc cc23 603d d263 063e
000000e0: 663f 1b3c 4012 83bd 0878 f33d 9802 cf3c
000000f0: 2cb9 243e e469 873d 0821 993c f641 b43d
00000100: 84b5 983d 1a15 993d 5c57 603e f4e0 32bd
00000110: 6069 033d 6ad4 3d3d 9303 e73d cf7a 8f3d
00000120: 3f6f 833d 6d9d 2c3c 2a52 8d3d 7d07 81bd
00000130: 4177 963d 9f61 2e3d bea7 d03c 1534 f73c
00000140: 022e 8bbd 39ae 1f3e d951 fd3c 1502 17bc
00000150: 60a1 aa3d eb10 05bd 2d0e 3c3e 8e03 133e
00000160: 6e13 603e 8edc 2d3d 6e0c 1e3e 2912 7f3d
00000170: 6bf6 a33d 1056 e3bc 6be0 223e 8a14 cfbc
00000180: 348e 743d 5e7f d03d 9d6d 263e 4f70 903c
0.10164582 0.045350056 0.13432315 0.0737702 0.06203443 -0.004164035 -0.021043627 0.18688667
0.08591742 0.034185655 0.0753582 0.12125284 0.06874417 0.13077131 0.04518525 0.0012954616
0.019062238 0.004306297 0.25093612 0.09759828 -0.03318718 0.06876948 0.08525563 0.047480576
0.1856095 0.01640507 0.0021485107 0.06616918 0.09423367 0.19391766 0.15669417 0.10903744
0.07816977 0.11208739 0.100576356 0.058473714 0.04477146 0.043502577 0.08124891 0.028585494
0.01967562 0.090746716 0.07892519 -0.009192324 0.002638337 0.08511028 0.19895901 0.045961455
-0.0012744986 0.013713218 0.037205346 0.044046354 0.057979755 -0.019561883 0.05472164 0.13124016
0.009475565 -0.06399965 0.118881285 0.025269791 0.16086262 0.06611994 0.018692508 0.088016436
0.07456496 0.07474728 0.21908325 -0.043671563 0.032082915 0.046345152 0.112799786 0.07005846
0.06417703 0.01053558 0.06900437 -0.063002564 0.07346965 0.042573567 0.02547061 0.030176202
-0.06795885 0.15593804 0.030922817 -0.009216805 0.08331561 -0.032486837 0.18364783 0.14356825
0.21882412 0.042446665 0.15434429 0.06227318 0.08005985 -0.027750999 0.15905921 -0.025278348
0.059705928 0.10180543 0.16252752 0.017631678

12.weight f4 [100, 100]
00000000: 8589 bfbd cd48 91bc a26c dcbc 54e1 2cbe
00000010: c047 b3bd f711 f1bd fd6d d83c 3539 363d
00000020: eb25 cfbd 6444 dbbb f9c2 48be 91d1 24be
00000030: 58d3 1abd aa5e ddbd e8ad eb3b 2a27 0abd
00000040: 0194 9fbd d3f7 13bd 7c29 9c3d bbeb eebd
00000050: 55f0 233d acbb 16be 982e b3bd e4aa 5838
00000060: 46b4 8dbc efdb e13d 3de7 1ebd 101a 453b
00000070: 34dc dabd a77a e13d 8596 3bbe 24d4 8a3d
00000080: ea5d 08be f7b8 dd3c adbe e33d 9de3 bb3d
00000090: ea6f 913d 6ea4 223e c71f bfbd c6e8 3d3d
000000a0: 1a7d 29be 40c6 fbbd 6858 9d3d ed13 053d
000000b0: 9ef6 89bc 0560 33bb a8e9 6abd 85a6 203d
000000c0: a648 033d b5eb 113b c589 eebb d8bb 533d
000000d0: 29c5 963d d6be c4bc eddc 08bd db3b 0e3b
000000e0: 609f 293e 581e 23be e04a 12be 8f9a c13b
000000f0: 57a1 5ebd d1a0 f5bd 3a8a 2dbd 5281 183e
00000100: 4a27 983c 3c9b 1dbd 1b2b 42bd f025 f43d
00000110: da10 34bd da61 83bd 0a7d 313e f71e c93b
00000120: 2898 033e b707 d0bc e561 063e f50d 84bd
00000130: 063e 68ba 0b2e a5bd 68fc 02be 0bdf 853d
00000140: 3248 0abe 4238 3abd 6844 abbd 5d99 733c
00000150: fc1d 8ebd 6bc6 1fbe b991 a1bd 7022 21be
00000160: 4041 20bc 5e70 c13d 810f 083e 171f 4cbd
00000170: fb6a 923d 1123 623c 115d 023e 2984 f33d
00000180: 98ae f9bd 30b2 ecbd 1626 f33d 4e1a 423d
00000190: ade1 0c3d dd8b ae3d 6d48 d8bb a785 5d3e
000001a0: cf75 44bd de25 05be d460 a93d 82aa 1d3d
000001b0: 5f47 663d b006 a53d 274a a23d 71b1 cd3c
000001c0: 02fe fcbc 6e4f 1ebe 2b39 8bbd 5801 633e
000001d0: 44cd 1a3d 2579 70bd 0497 253e c987 77bc
000001e0: dd70 7fbd 125b 963d a4fe cbbc 19b0 8b3d
000001f0: 08ff a4bd 5bc5 05bd 4e43 8fbd 0fb4 1f3d
00000200: 54d4 c13d cd5c 283d b3d4 243d b573 de3d
00000210: 788e cdbd 9f94 89bd 65cd 7abd 7b05 463d
00000220: c6fe 283e d2f6 24be 9687 24bd 5f6a 573d
00000230: 91d2 98bb c782 bdbd 96c4 71be 89ea 47be
00000240: 31f7 18bd 724b b53b dc8e 123e 79db 133d
00000250: 69df 433d 0d47 b53d 0059 b73c ea34 7bbd
00000260: f42f a63d a5b3 17bd 321c c53d a4f1 d03d
00000270: ca0b e1bd a47c eebd fbcd dabd dc34 353d
00000280: 157c 2d3e f16f 4a3d 9204 debc 485f 0c3e
00000290: 2ee5 f9bc 49e6 ce3b 2384 87be cde5 3dbe
000002a0: a982 dd3c 0383 d0bc a1d2 143d 9e23 1cbd
000002b0: ec53 fd3d 074c 3bbc 9f18 2a3e 3e1c a63d
000002c0: a02e 413d b0ff b73c 7bb0 8d3c c737 00bd
000002d0: c7df 31be 5b31 4dbd 6106 a9bd 3b98 3ebd
000002e0: f08a 3dbd ed6d d4bc a0a5 7b3d 4301 2dbd
000002f0: c97a a73d 27fc 52bd 0e4b 0ebe 423b b5bc
00000300: 6959 41be 332f 823d a01d dd3d 80bc 3abc
00000310: 5982 fbbc 5e0b 493e e539 9bbc f351 f6bd
00000320: ae23 b0bd 8620 aebd a7e2 6bbc 55d4 9d3d
00000330: 856e 5d3b c846 40bc 6061 203e fbf5 293d
00000340: 0011 aebd 2cd5 f4bd 1819 80bd 952e 2ebc
00000350: a233 84bd b1a3 f6bc ff2d afba dc1d c6bc
00000360: b181 e23c 9801 58bc 633a a73d 7b52 65bc
00000370: 509b 0bbe a55e 35be 52b7 06be 51df 1abe
00000380: 21f7 1e3e 95db b4bc 8664 b8bc cc50 333e
00000390: 68ae 29bd 6031 003d 4d86 f1bd 44ac 26bd
000003a0: dcc1 973d 8e7f 03be bfd2 f7bb b8a4 4fbe
000003b0: 9b20 05be 57ea 11bd 2370 c93c 5a29 003e
000003c0: c1be 383e 8206 a73c 73f6 9fbb d4fe 75bd
000003d0: cc5d d1bb 3406 4e3d 542d 8f3d 3b21 e2bd
000003e0: 14c0 26be 7e38 f83d 8f76 623d 0f83 b23c
000003f0: 3490 27bb 48de aabd 2af1 7a3d 5adb 6e3b
-0.09352402 -0.01773491 -0.026907269 -0.16882831 -0.087539196 -0.11771005 0.026419634 0.04448815
-0.10114654 -0.0066915024 -0.19605626 -0.16095568 -0.03779921 -0.10809071 0.007192362 -0.033728756
-0.077919014 -0.036125015 0.076251 -0.11666056 0.04002412 -0.14720029 -0.087491214 5.1657567e-05
-0.017297875 0.11028277 -0.038794745 0.003007535 -0.10686532 0.11009722 -0.18319137 0.06778744
-0.13317075 0.027065737 0.11120353 0.09174273 0.07101424 0.15883037 -0.09332233 0.04636457
-0.16551629 -0.122936726 0.07682878 0.032489706 -0.016841229 -0.0027370465 -0.05735174 0.039221305
0.032051705 0.0022265736 -0.007279607 0.051692814 0.07361824 -0.024016779 -0.033413816 0.0021703157
0.16564703 -0.15929544 -0.14286375 0.0059083174 -0.054353084 -0.11993564 -0.04236815 0.14893082
0.018573422 -0.03847812 -0.04740439 0.119212985 -0.043961383 -0.06415148 0.17332855 0.0061377245
0.12851012 -0.025394304 0.13123281 -0.064479746 -0.000885934 -0.080654226 -0.12791598 0.06536683
-0.13504103 -0.045463808 -0.08362657 0.014868108 -0.06939313 -0.15603034 -0.078891225 -0.15735793
-0.009781182 0.094452605 0.13287164 -0.049834337 0.07149311 0.013802306 0.12730815 0.11890442
-0.12191504 -0.11557424 0.11872499 0.047388367 0.03439491 0.085227706 -0.0066004307 0.21633016
-0.047963914 -0.13002726 0.082704216 0.038492687 0.05622041 0.08057916 0.079243 0.025109025
-0.03088284 -0.15459988 -0.06798013 0.22168481 0.037793413 -0.058709282 0.16170889 -0.015108057
-0.062363494 0.07341589 -0.024901696 0.06820697 -0.08056456 -0.032658916 -0.06995259 0.038990077
0.094643265 0.041104127 0.04024191 0.10861913 -0.100369394 -0.067178 -0.061231036 0.04834507
0.16503438 -0.1610978 -0.040168367 0.052591678 -0.0046637733 -0.092534594 -0.23610148 -0.19523062
-0.037345115 0.0055326754 0.14312309 0.036097977 0.047820482 0.088514425 0.022381306 -0.06132976
0.08114615 -0.037036557 0.096245185 0.10202339 -0.10988577 -0.11644867 -0.10683819 0.044239864
0.16941865 0.049423162 -0.027101789 0.13708222 -0.03050479 0.006314073 -0.26468 -0.18544693
0.027039843 -0.025453096 0.036333684 -0.038119905 0.123695225 -0.011431701 0.16610955 0.081108555
0.047163606 0.022460788 0.017296067 -0.031303193 -0.1737052 -0.050095897 -0.0825317 -0.046531897
-0.04627508 -0.025931323 0.06143725 -0.04223753 0.08177716 -0.051510002 -0.13895819 -0.022122983
-0.18881764 0.06356659 0.10796666 -0.011397481 -0.030701803 0.19633242 -0.018948505 -0.12027349
-0.08600555 -0.08502297 -0.0143973 0.07706515 0.0033787799 -0.011735626 0.15662146 0.04149435
-0.08499336 -0.11954722 -0.06254786 -0.010631223 -0.06455161 -0.030107351 -0.0013365148 -0.02418416
0.027649732 -0.013183974 0.08165433 -0.013996716 -0.13633466 -0.17711885 -0.13155869 -0.15124251
0.1552396 -0.022077361 -0.02250887 0.1751129 -0.041426092 0.031297088 -0.11793194 -0.04069163
0.074100226 -0.12841627 -0.0075629647 -0.20277679 -0.13000719 -0.035623875 0.024589604 0.12515774
0.18041517 0.020388845 -0.004881674 -0.060057476 -0.0063893553 0.050298885 0.069910675 -0.110414945
-0.1628421 0.1212015 0.055288848 0.02179101 -0.002556813 -0.08343178 0.06126515 0.0036446662

14.bias f4 [100]
00000000: 5587 293e b453 873d 7c39 503c a962 3b3e
00000010: 6bd1 e43d d002 683e 241b d43d 720d 9c3d
00000020: 9804 053e bfa3 303d f1e7 943d d332 cd3d
00000030: 7332 f1bc 8301 953c 50e1 053e 9ef7 a83d
00000040: b93b 073d 72ef 103d f62d d33d 537c cf3c
00000050: 2c63 723e cc33 213d 70c0 60bd f926 b23d
00000060: c521 1e3c 795c 993d df08 b73d 0c73 be3c
00000070: 6de8 4b3e 493a 953d 018b d03d 12b7 283e
00000080: 8e23 853d f49e 08bd 2227 473d 30de 163e
00000090: 439b 303e 13f9 b03d b2f2 6a3e 4131 dc3d
000000a0: aaaf 1b3d c71d 9c3d 7443 193e 6892 8f3d
000000b0: f4ba e33d e7b2 733d 3c0f 0f3e de4a 113e
000000c0: d399 ec3d 819f 3d3d 1010 f23d d1e7 883e
000000d0: 2f86 df3d 4642 563d f245 263d 2c9f 753d
000000e0: 1b02 cf3d 1021 713d 66d2 4e3d 7c91 ef3d
000000f0: 7a81 2d3d 6481 073d 5f56 563d deaf e63d
00000100: 4e81 813e 728f 2e3e 558c 823d 1306 32be
00000110: 12b8 8d3d 501f 913d 3af4 593e 9f00 f63d
00000120: 1c35 833e 1dbc 8b3e a565 ed3d 897d 083e
00000130: 3548 c03d 5b99 0dbd f18b e23d 727f c93d
00000140: 758e 4d3e c464 513d 7bfa 2e3e 31da d43d
00000150: 35b8 933c 033a 563c acce d93d a2b4 793d
00000160: a75e 193e 7fb0 7f3d d2e6 5b3d d219 37bc
00000170: 7c16 063e 5627 943c 10f8 08bc 2a6b f43d
00000180: aad6 fd3d d36d 1a3c 402c f23d 1591 21bc
0.16555531 0.06607762 0.012709018 0.18299355 0.11172756 0.22657323 0.10356739 0.07619752
0.12990034 0.04312491 0.07270802 0.100194596 -0.029443001 0.018189197 0.13074231 0.08250354
0.03301594 0.035384603 0.10311501 0.025327837 0.23670644 0.039356038 -0.054871023 0.0869884
0.009651606 0.07488341 0.08937239 0.023248218 0.19912882 0.07286508 0.10182763 0.16476086
0.06500922 -0.033354715 0.048621304 0.14733195 0.17246728 0.08641257 0.22944143 0.10751582
0.038009323 0.07622867 0.14967138 0.07010347 0.11119643 0.059496786 0.13970655 0.14188716
0.11552777 0.046294693 0.1181947 0.26739362 0.10914265 0.052309297 0.04059405 0.05996625
0.101078235 0.05886942 0.05049362 0.11697671 0.042359807 0.03308238 0.052328464 0.11264013
0.25293964 0.17046908 0.063744225 -0.1738513 0.06919874 0.070860505 0.21284571 0.12011837
0.25626457 0.27291957 0.11591653 0.13329138 0.093887724 -0.03457008 0.11061848 0.098387614
0.20073874 0.05112149 0.17087738 0.10393179 0.018032173 0.0130753545 0.10635123 0.06096328
0.14977513 0.06242418 0.053686924 -0.01117559 0.13094515 0.018085163 -0.008359924 0.119345024
0.123944595 0.009425598 0.11824846 -0.00986125

14.weight f4 [100, 100]
00000000: 0453 47be 5da1 063e 33a9 a2bd eb7b f5bd
00000010: ab07 f73d 09b6 b43d b675 093d 5c2a 9abd
00000020: 72be 2a3d 0770 073d b6a7 f03b d052 babc
00000030: 7150 f53d 2a12 07bd b68d f73c bd27 05bd
00000040: 9ce1 f0bd a741 2abe 91ba 603c 8ce1 1c3e
00000050: 879e 053d 7caf 6b3d 1fe7 913d c340 43bd
00000060: d2ff c83d 11d9 4b3c acad 24bd 41f3 d63c
00000070: 85e2 983c be88 3b3c acb3 6a3c d46e 58bd
00000080: 2384 2d3e e02e b5bd eb6e f23d cc0a 2a3d
00000090: 4d95 3abe f620 903d 248f 25bd 0f5a b8bc
000000a0: 8e18 8fbd a904 32bd 243d eebd 9088 58be
000000b0: 7b64 39be 4bc0 4d3d 62d7 253e c730 a7bd
000000c0: 3a55 5c3c 56b7 48bc 64fa 80bd 20ce 373e
000000d0: d021 663d 4689 c2bc 97a0 893c a8b8 29bd
000000e0: 27eb 293d 69c8 703b 0ab9 313e 83c3 333c
000000f0: 1af9 babd f561 8c3d beb0 343d 6d80 bd3d
00000100: 6b93 41be 22e2 76bc a22b 793d 6128 dbbd
00000110: 0225 113e 9cda 5abd db17 fabd 5e1a a3bb
00000120: 0659 86bc 83a0 ee3b aef7 b73d 1a9e bdbd
00000130: fb12 633b 8227 b13d 99ec 27be 332e 1e3d
00000140: da9d b8bd de4f 76bc 99e6 22be d9af c33d
00000150: 6b9c 69bc 2f5a 8fbd b056 d03c 1165 0b3e
00000160: a35b 0cbe 1606 b83d c0c8 b23d 4209 aa3c
00000170: 0c27 37bd 037f 1c3c 1faa a6bc da03 623d
00000180: ffc5 283d e152 79bd b3ad 17bc c1c5 2b3d
00000190: 42a5 23bd 89f9 39bc d3d4 7d3d 6bb2 2b3d
000001a0: dad2 31be d331 59bd fe9b 87bd e4b5 aabd
000001b0: b005 953d 9965 013e 4646 fc3c a2da 37bd
000001c0: b12f a93d 9613 853d e527 cfb9 2ef7 7cbd
000001d0: 5c45 983d 23ae 70bd 98ec df3d 5b49 60bd
000001e0: 190a 55bd 3586 a5bd baaa 3e3d 9a81 9bbd
000001f0: c57e a03c a9a7 23bd 7034 d5bb daf8 57bc
00000200: 8856 8b39 341c cb3b b3b7 1d3e 3e37 b13d
00000210: c53c f5bc 832c 09be 13e1 6f3d 8b2b 9d3d
00000220: 6751 9e3d 6542 28bc 5a73 32be 4556 0abd
00000230: 717f b13d 38b1 393d 0ecc 523e caeb 543d
00000240: 814b f53c f772 4cbb f146 c5bc 9248 e03c
00000250: be1e 3c3d b050 f3bb 7794 9abd ce38 0abb
00000260: 5822 d53d 7880 0fbe a959 bbbc 1704 b5bd
00000270: a6fb c63d bf09 bd3d 2b9d 41bd 84f2 70be
00000280: 6f41 f13b 6954 16bd 90b2 af3d 0c82 bcbd
00000290: eff3 09be 3390 563d 3b3a ac3d f5b6 75bd
000002a0: e037 d8bb b1be c23b 447e fc3d 3489 b93d
000002b0: 036e 06be 6c9f b53c bc42 1cbd de7c b7bd
000002c0: ba44 1e3d a5a3 193d 10ee 103d 6f17 2bbe
000002d0: 8ab4 f13d 7ee8 f0bd 2000 e73d 713a 44be
000002e0: c9d9 9d3c 9584 b13b b766 b23d c064 26be
000002f0: 688d db3c 2762 a3bd 6ace 0f3e 42c9 33be
00000300: 9603 0bbe c74a b3bd 5bfe 723d ded2 38bd
00000310: f57a 81bd d593 6a3c fa75 eb3c 09bd 183e
00000320: af58 5dbd 462f 383e e2a3 763d 588e f63d
00000330: d79b 323e 3026 393d 62a6 13be 969d 48bd
00000340: 2055 d7bd 8633 2b3e b530 1fbe 6187 9d3d
00000350: ec90 80bd 0a05 f5ba 6fdb b73d 95ec 15be
00000360: a711 083d 1e83 733e 683d 8a3d 1507 12be
00000370: cc17 d6bd ad9b 273e 727a a8bd ebaf 6cbe
00000380: 2564 943c 715c 81bc aee2 8dbb e37a d3bd
00000390: ed7c 113e 7b9f 033d d396 213d 3e92 67bd
000003a0: 3b85 b43d 8549 86bd c5fb ae3c 04f8 5bbd
000003b0: 933c 123d 1751 ccbb fb8b 113e 4835 8f3d
000003c0: 30ad 933d 38d6 953d b4d7 3bbe 7ee5 0cbd
000003d0: 0e26 6cbc 9181 55bd 6c26 3cbd 6aad 60bd
000003e0: b337 b9bc 6f16 fb3d 09b2 36bc 4cf3 b13c
000003f0: 99d9 a33b 4676 863d 26e4 c7ba b950 023e
-0.19465262 0.13147493 -0.079424284 -0.11986526 0.120620094 0.08823783 0.033559524 -0.07527611
0.04168553 0.033065822 0.0073442115 -0.022744566 0.119782336 -0.032976307 0.03021894 -0.0325086
-0.117617816 -0.16626607 0.013716356 0.15320414 0.032621887 0.0575404 0.07124161 -0.047669183
0.09814419 0.012441889 -0.04020469 0.02623904 0.0186627 0.011446176 0.014325064 -0.05284007
0.16944937 -0.08846831 0.11837562 0.041514203 -0.18221016 0.07037537 -0.040419713 -0.02250388
-0.06987105 -0.043461476 -0.116327554 -0.21145844 -0.18104737 0.050232213 0.16195443 -0.081636004
0.013448054 -0.012250742 -0.06297758 0.17949724 0.05618459 -0.023747098 0.016800208 -0.041435868
0.041484024 0.0036740548 0.17355743 0.010971907 -0.091295436 0.06854621 0.044113867 0.09253011
-0.18903892 -0.015068563 0.060832627 -0.10701061 0.14174274 -0.05343114 -0.12211581 -0.0049775084
-0.016399872 0.007282318 0.08982788 -0.09258671 0.0034648764 0.08650114 -0.16398849 0.038618278
-0.09014483 -0.01503369 -0.15908279 0.09555025 -0.014258484 -0.06999623 0.02543196 0.13612773
-0.13706832 0.08985536 0.08729696 0.020756368 -0.044714972 0.009551766 -0.020344792 0.055179454
0.04120445 -0.060870055 -0.009257722 0.04193664 -0.039952524 -0.011350998 0.061970543 0.0419182
-0.1736559 -0.05302603 -0.0662155 -0.08335474 0.072764754 0.12636413 0.030795228 -0.04488624
0.082610495 0.06497876 -0.0003951184 -0.061759166 0.07435104 -0.05875982 0.109337986 -0.054757457
-0.052011583 -0.080822386 0.046549536 -0.07593079 0.019591698 -0.039954815 -0.006506495 -0.013181889
0.00026576617 0.0061984304 0.15402107 0.08653115 -0.029936204 -0.13395886 0.058564257 0.07674321
0.0773037 -0.010269736 -0.17426816 -0.03377368 0.08666886 0.045335025 0.20585653 0.05198268
0.02994323 -0.0031196454 -0.024081679 0.027378354 0.045927756 -0.00742539 -0.07547849 -0.0021090987
0.10406941 -0.1401385 -0.022869902 -0.08838671 0.09715967 0.092303745 -0.047269028 -0.23530012
0.0073625366 -0.036701594 0.0857898 -0.09204492 -0.1347196 0.052383613 0.08409544 -0.059988935
-0.0065984577 0.0059431423 0.12328771 0.090593725 -0.13127904 0.022170745 -0.03814958 -0.089593634
0.03863976 0.03750958 0.035383284 -0.16708158 0.11802013 -0.11763094 0.11279321 -0.19162919
0.019268887 0.0054174163 0.087109976 -0.1624937 0.026800826 -0.079777054 0.14043584 -0.17557243
-0.13575587 -0.08754497 0.059324604 -0.045122974 -0.0632228 0.014317472 0.028742779 0.14915861
-0.054039653 0.17986783 0.060214885 0.12038869 0.1744226 0.045202434 -0.14418939 -0.04897841
-0.10514283 0.16718873 -0.15545924 0.07691837 -0.06277642 -0.0018693518 0.089774005 -0.1464103
0.03321996 0.23780486 0.067499936 -0.14260514 -0.10453758 0.1636798 -0.082264796 -0.23113982
0.018114159 -0.01579115 -0.004330001 -0.10326173 0.14207812 0.032134514 0.039450478 -0.05653595
0.08814474 -0.065569915 0.021360287 -0.053703323 0.0357023 -0.0062352526 0.14213555 0.069925845
0.07210767 0.073162496 -0.18344003 -0.03439855 -0.01441337 -0.052125517 -0.04593508 -0.05485288
-0.022609567 0.12260138 -0.011150845 0.021722458 0.005000305 0.065655276 -0.0015250489 0.12726106

16.bias f4 [100]
00000000: 39fc 593d 202b 0a3d 0edc ea3d 1876 8a3d
00000010: cc8e ff3c ed74 1f3e 0976 c73c 56e1 9d3d
00000020: 7d57 903b 563e 203d dabc cc3d 41a3 283d
00000030: 17ff 783e df12 823d e0cb 6c3e d326 473e
00000040: f268 e73c 4a5a 173b a4f2 203d 5529 693e
00000050: 30a8 9c3d 5063 283e 161a 52bc 6492 643e
00000060: 7006 2c3d 7667 f53c cf59 303e 6f6f 073e
00000070: a17e 033d 1d6b aa3d f017 383d 5e04 243d
00000080: 4878 963d 4a36 5fbc ef25 1d3e b2c6 babc
00000090: fcaf e73d 1ac7 773d 3304 6d3d d0ce b13d
000000a0: e895 833e cef4 393e 6c20 893c 45c7 253e
000000b0: 2fca 2f3e 8ec1 253e f224 033b 9170 be3d
000000c0: 501c 5c3d 2ffa 083d 14e6 a43d 8cd3 df3d
000000d0: aa3d 4a3d c6e5 873e bb39 c33c f49e f83c
000000e0: ffbe e03d df01 553e 49b7 773d fe23 cfbb
000000f0: c884 083e 75b5 eb3d d1b3 5b3d c5fd 563e
00000100: 2522 413e c8a2 233e fbf2 5c3e bfd5 913d
00000110: 79d2 aa3d d594 2a3e 099d 563d 32e4 403e
00000120: 8168 003e 5466 a1bc 13d0 633e 2371 9d3d
00000130: 2a5b f33d 66cd 8d3d 87ea 183e 2dab 7a3e
00000140: 034c 173e ed75 d6bc 493d 8a3b 1798 6cbc
00000150: 02e0 2f3d 0a22 433d bfe5 dc3d 9335 1e3e
00000160: b2fb c43d 015c af3c e377 b93d 84a0 8d3e
00000170: f812 933d 38e4 5e3d a198 873d 2514 7b3e
00000180: 99b8 9c3b 54a2 3d3d 12e4 0a3d f58e 173e
0.053219054 0.033732533 0.11467753 0.06760806 0.03119602 0.15571947 0.024348276 0.07708995
0.0044049607 0.03912195 0.09996958 0.041171316 0.24316059 0.063512556 0.23124647 0.19448404
0.028248284 0.0023094588 0.0392939 0.22769673 0.07649267 0.16444135 -0.012823602 0.22321469
0.041998327 0.02995656 0.1722176 0.13226102 0.032103185 0.083212115 0.044944704 0.040043227
0.073471606 -0.013623783 0.15346502 -0.022799823 0.11312863 0.060492612 0.057865333 0.086820245
0.25700307 0.18159792 0.016739093 0.16189297 0.1716697 0.16187117 0.0020011035 0.09298814
0.05373794 0.03344172 0.080516964 0.10929021 0.049375214 0.2654249 0.023831239 0.030349232
0.109739296 0.20801495 0.06047753 -0.0063214293 0.13331902 0.115092196 0.053638283 0.20995243
0.18860681 0.15980065 0.21577065 0.07120847 0.08340926 0.16658337 0.052395854 0.1883705
0.12539865 -0.019702114 0.22247343 0.07687595 0.118826225 0.06923942 0.14933215 0.24479361
0.1477509 -0.026179278 0.0042187315 -0.014440558 0.04293824 0.047639884 0.10786008 0.15450124
0.096183196 0.021406176 0.0905607 0.27661526 0.071813524 0.054416865 0.066209085 0.24519403
0.004782748 0.046297386 0.03390891 0.14800628

16.weight f4 [100, 100]
00000000: 362c 21bd b002 a53d 81d5 ef3c 822d 43bc
00000010: 33c7 043d db98 d2bd 849d 5abe b02d e63d
00000020: e34a 203d 0aee 5bbc cfcf 0e3d b696 91bd
00000030: 93b4 a7bd 3f0f 0cbe 0149 3e3d 8d1f bdbd
00000040: 3f5f 063e 3212 43be 6dfe 913d d74b 9e3c
00000050: d846 883d 9930 223d 0398 34bd b777 15bd
00000060: 17c8 02bd ae8a 0fbd 9f86 f23c 68c1 c2bd
00000070: e357 51bc 93ad ccbc 7ff1 16be 37ec d5bd
00000080: b992 b63d 8f0b d6bd e4cc ebbd 6900 48be
00000090: 36d6 5abc 0f4f 8fbc 46cd 9bbc 63a1 9cbc
000000a0: 5312 a2bc 6e21 873c 1777 8c3d 341b afbd
000000b0: 3b33 f53c 0e58 093e 4acf dfbc 1faf 94bd
000000c0: 9242 a2bd 5e13 dc3c 884f afbd 8aac 823d
000000d0: b460 643d 373d cdbd 8227 8abd 562c a2bc
000000e0: 2fd7 e83d 2e6e e4bd 1675 fcbc 5abf eebd
000000f0: 34cf 9d3d 0133 25bd cd87 08be 269d 7dbd
00000100: 796f 543e a2ce 353d 8cd7 e13d a1eb b7bd
00000110: b94c 07be 0a75 123e 8cd4 55bd a9c9 99bd
00000120: 0078 9dbd efdf 9a3d 8230 bf3d d58e 62bc
00000130: e0f8 573c 2317 993d 89b1 bbbd d743 00be
00000140: d8be 2f3e 67d4 adbd c84e 19be f62b d43d
00000150: ca56 4d3e 751a 113e 12e8 03bd 810a b4bd
00000160: 4128 553d 9356 a0bb 9e50 f6bd 01b7 bd3c
00000170: ec6f 193e 22f9 333d bcf5 97bd 7058 3fbc
00000180: 3547 f9bd 51ba 42be be06 a3bd fdb3 a23c
00000190: 952f 543c ff0b 0dbe 9d12 10be 1bcf 4e3d
000001a0: 361b 06be 5e76 4b3d 24ce 0ebe 03bd a33d
000001b0: 2b5f 0a3d 8c07 913d bfd4 c4b9 3a01 e0bb
000001c0: bf62 9bbd 9155 e93c c6e7 593b ab35 85bd
000001d0: fb3f c43d 9c5e 68be ad4e 9a3d ecce f1bc
000001e0: 63ce 443e 21c4 12be f494 393a 28b1 6e3c
000001f0: b4d0 f0bd 2000 213e 9a18 c3bd 66a5 5b3d
00000200: 84ed 07be 0a7e f1bd 4549 4a3d ca5e 333c
00000210: 5fbc 3fbd fd79 0cbb 1bd6 4bbe 30af febd
00000220: 581f d53d d8bd 97bd 9951 9a3c 5f79 f6bd
00000230: aa69 e6bd cfa8 cbbd e091 a93d c3d5 3bbd
00000240: da0f 32be 9c60 0a3e ea0c e3bd 73d8 50bd
00000250: cc1f adbd 42a1 873d 857d 4e3d 6018 86b8
00000260: 20f6 b8bc f315 d03c f7fc 193d 0f49 df3a
00000270: 192d 27bd 15d0 1bbe d050 9c3c 15bb af3d
00000280: c4e6 d7bc 8a8c 04bc 4597 f2bc fbec 9bbc
00000290: d435 1e3e 88d2 723d f95c b5bd a7b9 9cbd
000002a0: d2cc b1bc 6c00 823d 0b26 24be 4543 273e
000002b0: 8508 19be 8036 39be e4c0 3b3d 6585 053e
000002c0: 6c85 2f3e ddd5 323d f3ab 1dbe a412 2a3e
000002d0: 3252 0a3e 1f8e 3abe be9e 143d 2155 b0bd
000002e0: 748f 99bd 2aa9 b6bd b2a7 69bd 8066 b3bc
000002f0: 9b3e 37bd ac2d dfbc 6f4e a7bd 59c0 cebd
00000300: 52e2 a7bc 09df ae3c ed3a a6bd 421d b43b
00000310: a767 02be 98c3 1ebc c4d6 663d a314 9fbd
00000320: e2c5 a43c 5686 acbd 00ae 243d 3a7c d13d
00000330: e60f d3bd 2c54 d73d 4884 45be 998a e83d
00000340: 2596 b23c 01d9 56bc 7bc9 98bd 11b5 413e
00000350: 810b ba3d 798e 87bb b5a1 803d 01e4 31bd
00000360: 5368 7b3d 39fe 7dbd fe0b 4abc f7e8 983d
00000370: a5e8 a63d 7c7f 253c fbe2 48be 58d0 4abc
00000380: 28b7 1b3e 9f61 b93d 63ea 3bbc 2289 33bd
00000390: f110 74bc 96e2 c93d 3035 b63b 134c 03be
000003a0: 0b85 24bd b8aa 083e 2ed1 90bd df2b e2bd
000003b0: f123 e93d ad64 11bd 679a 363d cb9e 0ebe
000003c0: 034b cfbd 36f7 a9bd 6fc2 48be 9a9e bb3d
000003d0: 3f76 4abd 617e 7fbb 84bc 773d 7c0d 883d
000003e0: b8a0 49bc 43c7 75bd 058e 0c3d 96b6 073c
000003f0: ae7a 123e 9a87 4ebc a3d6 933d 0ca5 2cbd
-0.039348803 0.08057153 0.029276611 -0.011912705 0.032416534 -0.10283061 -0.2134915 0.11239183
0.039133918 -0.013423452 0.03486615 -0.07108824 -0.08188739 -0.13677691 0.04645634 -0.092345335
0.13122271 -0.1904991 0.07128606 0.019323273 0.066541374 0.039597128 -0.044090282 -0.036491122
-0.0319291 -0.035044365 0.029605208 -0.095095456 -0.0127773015 -0.02498511 -0.14740561 -0.10445445
0.08914704 -0.104514234 -0.11513689 -0.19531406 -0.013356736 -0.017493753 -0.01901878 -0.019119924
-0.019784128 0.016495433 0.06858652 -0.085501105 0.029931655 0.13412496 -0.027320523 -0.07259964
-0.079228535 0.026864704 -0.08560091 0.063805655 0.055756286 -0.100214414 -0.06745817 -0.019796532
0.11369168 -0.111538276 -0.03081755 -0.11657591 0.077055365 -0.040331844 -0.13333054 -0.061917447
0.20745648 0.044386514 0.110274404 -0.089804895 -0.13212861 0.1430246 -0.052204654 -0.07509167
-0.07688904 0.07562243 0.09335424 -0.013827999 0.013181895 0.07475116 -0.091647215 -0.12525879
0.17162645 -0.08487778 -0.14971459 0.103599474 0.20052639 0.14170249 -0.03220374 -0.08791066
0.052040342 -0.004893133 -0.12027095 0.023158552 0.14984101 0.043938763 -0.07419917 -0.0116788
-0.12171785 -0.19016387 -0.0796027 0.019861216 0.012950798 -0.13774107 -0.140696 0.05049048
-0.13096318 0.04967343 -0.13945824 0.079950355 0.033782165 0.070815176 -0.0003754254 -0.0068360837
-0.07587194 0.028483184 0.003324972 -0.06504377 0.09582516 -0.2269234 0.075345375 -0.029517613
0.19219355 -0.1433263 0.00070793857 0.0145686045 -0.11758557 0.15722704 -0.09526177 0.053624533
-0.13274199 -0.11791618 0.04938628 0.010947892 -0.046810504 -0.0021435015 -0.19905894 -0.12435758
0.10406369 -0.07409257 0.018837737 -0.120348684 -0.112506226 -0.09944307 0.082797766 -0.045858156
-0.1738886 0.13513416 -0.110864475 -0.050987672 -0.084533304 0.06622554 0.050412674 -6.394158e-05
-0.022578299 0.025401091 0.03759476 0.0017035323 -0.040814493 -0.15216096 0.019081503 0.08580605
-0.026355155 -0.008090148 -0.029613147 -0.0190339 0.15450221 0.05928281 -0.08855624 -0.07652598
-0.021704111 0.06347737 -0.16030137 0.16334255 -0.14944656 -0.18087196 0.04583825 0.13039167
0.1714074 0.043660987 -0.15397625 0.16608673 0.13507918 -0.18218277 0.0362842 -0.08609987
-0.07498065 -0.08918984 -0.057044692 -0.021899462 -0.04473744 -0.027243458 -0.08169257 -0.10095281
-0.02049366 0.021346586 -0.08116708 0.005496652 -0.12734853 -0.009690188 0.05635716 -0.07767608
0.02011389 -0.0842406 0.040205 0.102287725 -0.10305767 0.105141014 -0.19288743 0.113545604
0.02180011 -0.013113261 -0.07460304 0.18916728 0.090842254 -0.004136857 0.06280843 -0.043430332
0.06137879 -0.062010024 -0.012331961 0.074663095 0.08149842 0.010101195 -0.19617836 -0.012378775
0.15206587 0.09051823 -0.011469456 -0.043831952 -0.014896617 0.09857671 0.0055605397 -0.12821989
-0.040165942 0.13346374 -0.07071148 -0.11043524 0.113838084 -0.035496403 0.044580843 -0.13927762
-0.10121729 -0.08299105 -0.1960542 0.0916111 -0.049429175 -0.003898524 0.060482517 0.06643197
-0.012306385 -0.060004484 0.034315128 0.008283278 0.14304611 -0.012605572 0.07218673 -0.04214959

18.bias f4 [10]
00000000: 59d0 ba3d 1cda d9be 32a0 823e f47c 1f3e
00000010: 88d0 7d3e e7e4 a73d e34f a8be b495 43be
00000020: 3a67 033f 1799 193f
0.091217704 -0.42549217 0.25512844 0.1557501 0.2478658 0.081979565 -0.3287345 -0.19100076
0.51329386 0.5999922

18.weight f4 [10, 100]
00000000: e734 86bc 5fe0 393d 8093 e9be 34b3 dabc
00000010: 228f 23bd 5c0c 2fbe 5bbf 9f3c af45 f83d
00000020: 24ac b7bd 8c25 073e 6f8f 113e 4aef 41be
00000030: bfaa 01bc 7a50 453c b916 473e b42a 10be
00000040: ce5d c5bd 9f22 2fbe 0930 a8bd 894f d23c
00000050: 8adc 36bd dd49 99bd 353f 9fbc 4f05 143e
00000060: 0109 6f3d 6a32 0c3e 2557 f03b 90c1 48be
00000070: 4acf 8fbd d38c acbe d6cc c6ba 1b0e b9bd
00000080: b217 023c 157d dcbc c208 4abd 2307 2f3e
00000090: 88a2 0abe b4c6 e53e 9d96 39be efd1 08be
000000a0: bff7 a53e 7af6 02be 9e2f b03d 4060 3bbe
000000b0: 84fa 27be af7e b5bd ebae bcbd 93da 91bd
000000c0: 5f05 adbd a7a7 893e ae0a 77bc 99b9 6cbe
000000d0: 4a37 53be 2b6d c1be a31d f43d 3e89 583c
000000e0: e6bd 3ebb ec37 aa3d e512 23bd e0c6 5fbd
000000f0: 2d22 1f3e e526 8cbe e804 76bd 73f9 adbd
00000100: 3092 33be 2aa2 0e3d f89c 353d 1269 9dbb
00000110: bbff 033f a51b 96bd 6b6f 23bd 144c a9bc
00000120: f9a7 1d3e d4e5 e5bc 62e1 173d c7b9 bdbd
00000130: 03d8 743d 7f7a f13c 4288 e5bd 6be4 f2bd
00000140: 348f d3bd 77fd f5bd 5e01 b33e bf21 0fbe
00000150: 8c86 58bd 830f e7bd 1084 a0be 3cce 50be
00000160: f211 0bbd 0fee 7abd 77b1 a0bc a41b 74be
00000170: e2fc f1bd 37e1 6b3c d4ed 823d 8e04 b5bb
00000180: 811b 9c3d bd77 19be 2af0 1d3d b0f6 04be
00000190: 744e 46bc 192b debd 4023 8c3e 9e2c f0bd
000001a0: 6d74 5d3e 429a aebd e36e a53b 82fb 09bd
000001b0: 3943 85be e35a 1d3e f590 fabd bd84 6bbe
000001c0: 7226 86be 4e94 6e3e ad5d e9bd 44f4 9a3e
000001d0: 5c2e 90bd 6a65 1d3e 416c 913d abbf a0be
000001e0: d9ed 1a3e 075c 6bbd a617 48be 9435 81bd
000001f0: d1b6 d4bb 6047 41be 4408 4fbc c4c1 263e
00000200: 45f5 53be 14fd a73e 2786 5c3e 2ff6 8e3e
00000210: 97e8 b6bc 02cd ad3d af4d ef3d 1c70 ce3d
00000220: f8fe c43d c925 77be c368 9fbd 9266 fbbd
00000230: 4870 b8be 64c2 9bbe a952 9e3d a748 11be
00000240: d0d6 853c 62df 2b3e 994f b0bd 4618 ae3d
00000250: a889 1abe dce2 72be a075 3b3c 1d6d 6bba
00000260: acbe 41bd b47e cd3c fcf3 143d ac23 22bc
00000270: 1afe c2bd 8ebd 7ebe 077f ae3d c1c0 82bc
00000280: 3fdd 43be 0c1d f83c ac16 0fbe 657c 8b3c
00000290: 637a 293e faf2 d7be d177 b2be 378c 20bd
000002a0: 6c13 94bd 7104 acbe 72d5 073e a9d6 8dbd
000002b0: 12fc aebe 89ea 15bd 8f32 ec3d 4f23 c5bd
000002c0: 7d7e 583e 5c1f 77bd 82dd f53a 0d6a 86be
000002d0: 5e30 c53d 8fa4 88be 69ac 753c ceb2 35be
000002e0: 721a a33e eac6 65bd 772b 99be 8cf4 883e
000002f0: 4e86 453e 0a7a c4bd a036 00be 54f2 07be
00000300: 6acb 313e b7aa 983d 4fc6 8f3d bdf6 23be
00000310: 7177 5bbe f301 e5bd 9435 fd3c 938b e53c
00000320: d67c 333e 237d 79bd e56e 80bd ab8e 42bd
00000330: 78c5 6cbd a6f5 c73d c5b3 853d b5ad a43d
00000340: 1d55 003c 387e 22bd add2 903d 3431 14bb
00000350: fad6 223e 1209 85bc adf8 c23e cb95 943e
00000360: 3392 083d 5caf 8bbd a14d 37bd 223c 42be
00000370: d43b 1b3e 2845 ebbc c884 be3d 2509 183e
00000380: bad7 fe3c 4f11 1bbe 04cf ce3d 7277 983e
00000390: c8c8 0a3d d7b4 e1bc 3ef9 a63d de7c ab3d
000003a0: 8022 a1bd 40d3 463e 06a0 9f3e cb8d 343d
000003b0: eecb 3bbc 4762 6a3b 5b6d 83ba 80ca 613e
000003c0: 5e60 39be 1fd5 22be 7ad8 db3d 23cf a4bd
000003d0: 3f15 9dbd c323 66be 9869 423e 316d bcbc
000003e0: 9f03 74bc 1684 3ebe eb24 693d 6756 2bbe
000003f0: 59b4 a4bc 0cff 63be 264c 2a3c 6fac 10be
-0.016382648 0.045379993 -0.45620346 -0.026696779 -0.039931424 -0.17094558 0.019500425 0.12122666
-0.0896838 0.13197917 0.14214872 -0.18938938 -0.007914244 0.012043113 0.19442262 -0.1407879
-0.096370324 -0.1710305 -0.08212287 0.025672691 -0.044643916 -0.074847914 -0.01943932 0.1445515
0.058358196 0.13691106 0.007334607 -0.19605088 -0.07021959 -0.3370119 -0.0015167247 -0.090358935
0.00794022 -0.026915113 -0.04932476 0.17092566 -0.13538563 0.4487816 -0.1812386 -0.13361333
0.32415578 -0.12789336 0.08602832 -0.18298435 -0.16404158 -0.088620536 -0.092130505 -0.07121768
-0.0844829 0.2688572 -0.01507823 -0.23117675 -0.2062656 -0.377786 0.11919715 0.013216315
-0.0029104888 0.083114475 -0.03981294 -0.05463302 0.15540381 -0.27373424 -0.060063273 -0.08494844
-0.17536235 0.03482262 0.04433915 -0.004803785 0.5156209 -0.073294915 -0.03990118 -0.02066616
0.15396108 -0.028063692 0.037080176 -0.0926395 0.059776317 0.029477356 -0.1120763 -0.118599735
-0.10330048 -0.12011235 0.3496198 -0.13977717 -0.05286269 -0.112822555 -0.31350756 -0.20391172
-0.03395266 -0.061262187 -0.019615872 -0.23838669 -0.11815812 0.014396957 0.06393018 -0.0055242246
0.076224335 -0.14987083 0.038559116 -0.12984729 -0.012103666 -0.10848064 0.27370644 -0.1172726
0.21626444 -0.08525516 0.005048619 -0.033687122 -0.2602785 0.15366702 -0.122346796 -0.22999854
-0.26201206 0.23298761 -0.1139482 0.30264485 -0.07040092 0.15370718 0.07100726 -0.3139623
0.15129794 -0.05746081 -0.19540271 -0.06309047 -0.00649152 -0.18874884 -0.012636248 0.16284853
-0.20699032 0.3281027 0.2153555 0.27922198 -0.022327704 0.08486368 0.11684739 0.10079977
0.09618944 -0.24135508 -0.077836536 -0.12275423 -0.36023164 -0.30421746 0.0773061 -0.14187871
0.016337782 0.16784433 -0.08608932 0.085007235 -0.15091574 -0.23719352 0.011441618 -0.0008980798
-0.04730098 0.02508483 0.036365494 -0.0098962 -0.09521122 -0.24876997 0.08520322 -0.015961053
-0.19127367 0.030287288 -0.13973492 0.01702709 0.16550593 -0.42177564 -0.34857038 -0.03919622
-0.07230267 -0.3359714 0.13265017 -0.06925709 -0.3417669 -0.036600623 0.11533081 -0.09625875
0.21142001 -0.06033264 0.0018758031 -0.26252785 0.09628366 -0.26688048 0.014994719 -0.1774399
0.31856114 -0.056097902 -0.29915974 0.26749074 0.19289514 -0.095935896 -0.12520838 -0.13276035
0.17362753 0.07454436 0.07020246 -0.16012092 -0.21432282 -0.111820124 0.030909337 0.028020656
0.1752809 -0.060910355 -0.062711515 -0.04749934 -0.05780551 0.097636506 0.06528429 0.080409445
0.007832793 -0.039671153 0.07071433 -0.0022612335 0.1590232 -0.016239677 0.3808035 0.29020533
0.03334255 -0.068205565 -0.044751767 -0.18968251 0.15159541 -0.0287195 0.0930267 0.14847238
0.031108726 -0.15143321 0.10098079 0.2977863 0.033882886 -0.027552051 0.08153008 0.08373426
-0.078679085 0.19416523 0.31176776 0.044080537 -0.011462195 0.0035764144 -0.0010027097 0.22049904
-0.18103167 -0.15901612 0.10734649 -0.08047321 -0.07670068 -0.2247458 0.18985593 -0.023001285
-0.014893441 -0.18605074 0.056919973 -0.16732179 -0.020105528 -0.22265261 0.010394132 -0.14128278

2.bias f4 [100]
00000000: e745 e53d cfe0 933d 4882 c53d 87f5 123e
00000010: 67cb 413e cb7e 203d 8e4b e23d c990 913d
00000020: dcf1 5c3e f798 143e 0b07 e93d 697d 07bd
00000030: 8710 e03b e27d 7c3d db80 4f3e 8330 a83b
00000040: 8909 a23d 6f0c ee3c 178f 3f3d 7484 bbbd
00000050: a51b 8a3d 3ca7 413d 5be2 8a3d 8815 6dbd
00000060: c6c1 033e bce8 0c3e dc9a 943d ffc7 c13d
00000070: d63a 4d3d 8a32 54be 6efa 773e dba2 893d
00000080: c43f b23d 700b 483d 1fa5 063e 3411 f63d
00000090: bb9a efbc bfed 013e 3e9f 4e3d 0133 84bd
000000a0: d4f5 7b3e a5be 8c3d c7ab ac3d aded a43d
000000b0: 5152 923d 0cef 483d 4005 323c 899f 113e
000000c0: 8aa8 5e3d 53d0 ce3d f288 d33d f3a0 f13d
000000d0: 1c6b 11bc 3d2f f73d 2caf ca3d 527c 18bd
000000e0: ee03 c43d ea4e 993d c5c0 e73d c77f f63d
000000f0: c745 d6bd 26cb 073e b89a a13d 6f35 3b3e
00000100: a7e4 05bd c30c 043e 9e43 9a3d 395b a93d
00000110: 3ef5 503e 8765 1e3e ce6e 2d3e f8a3 b13d
00000120: 87f1 e73b 539d 783d d07f 943d 6bbc e13d
00000130: b5f2 14bd 68bf b03d 563c 1a3e 11e1 1f3e
00000140: 2630 f23d 0f30 413e e4da 8c3d 81a9 983d
00000150: 110f d23d 440c d63d 0dab cd3d d4ca 873e
00000160: 3b3a b93d 027d 303d 7763 253e d3b9 b93d
00000170: d0f0 083e 5499 e63d e7d7 183e 705a d33d
00000180: ed85 16bc a09d db3d ee23 c23d 3f3f 5c3d
0.111949734 0.07220613 0.0964399 0.14351474 0.18925248 0.03918342 0.11049567 0.07107694
0.21576637 0.14511476 0.113782965 -0.033078585 0.0068379077 0.06164349 0.20263998 0.005132736
0.07911975 0.029058663 0.04676732 -0.09156123 0.06743554 0.047278628 0.06781455 -0.057881862
0.12866887 0.13760656 0.072560996 0.09461974 0.05010494 -0.20722404 0.24216625 0.06720515
0.087035686 0.048839033 0.13148926 0.12015 -0.029248586 0.12688349 0.050444834 -0.06455041
0.24605495 0.068723 0.084312014 0.080531456 0.07144607 0.049056098 0.0108655095 0.14221014
0.05435995 0.100983284 0.103288546 0.11798277 -0.0088756345 0.12069557 0.09896693 -0.037227936
0.09571062 0.07485755 0.11316065 0.1203609 -0.10462528 0.13261089 0.078908384 0.18282102
-0.032688763 0.12895493 0.07532428 0.082693525 0.20406052 0.15468417 0.169368 0.08673853
0.007078353 0.06069691 0.07250941 0.11022266 -0.036364276 0.08630258 0.15062079 0.156132
0.1182559 0.18865989 0.068776876 0.07454205 0.1025678 0.10451558 0.10042391 0.26521933
0.0904431 0.043087967 0.16151224 0.09068646 0.13373113 0.11259714 0.1492611 0.10319984
-0.009187204 0.10723424 0.09479509 0.053771254

2.weight f4 [100, 784]
00000000: 9566 f63a d287 7e3d 9564 79bd 5b27 123d
00000010: a680 8a3d 896b 29bd 786c c53c 6d2e 69bc
00000020: a597 9cbc dbe4 c6bd f309 35bd 6340 f53c
00000030: 883a 4ebd a027 53bd 8d91 8dbd dc00 c23c
00000040: 4439 c2bd e286 353d f3f3 813d 28e1 99bd
00000050: edce 833d 70dd 3e3d e7ed 8fbd 3b84 ecbc
00000060: 70c9 6e3c df14 bf3d d86f d4bd 80c7 1e3e
00000070: 905c 013d d7d9 073c d0ab d1bd 3f57 ddbc
00000080: 34b1 0abe cb6c af3c c640 c83d 1b0e 25be
00000090: 755a ea3b ef7e c83c f58c 093d 933b 103e
000000a0: 9d50 863d 9f27 b4bb 9325 e33c baf7 09bd
000000b0: f273 08be 2750 83bc 78bf a93d d343 92bd
000000c0: f529 7fbd afda 6e3d 8786 863c 7456 f6bd
000000d0: d4cf 35be f729 e23d 9bed 043d 0166 92bd
000000e0: e5c2 953d 3f91 68bd 7ca0 57bc be54 243e
000000f0: 654b 9eba 19f2 0fbd 723b 283e 69df c33c
00000100: e46d e33d d9fb 5b3d 0f80 033d 670b 25bd
00000110: ceaf 28bd 26ee 073c 98f8 eb3d cd4c 95bc
00000120: 511a 733d a1f0 213e 2b80 95bd 8090 b43d
00000130: a8d6 63bd b456 433d 0bd1 c4bc 352f e23c
00000140: 7f2b 903d dc67 a2bd 6609 963c b875 fa3d
00000150: d075 84bc ff71 c8bc 6962 1d3d ee82 913c
00000160: 4fd5 7f3c 39f8 f53d ae80 8cbd 4046 4b3d
00000170: ea4f 8a3d 5390 2d3c d768 983d 93f9 863d
00000180: 9d9d 9abc 5308 533d 6304 043e 7cc9 063e
00000190: ec68 d83d 1775 4abc a110 2a3e 2c5c c03d
000001a0: 37c1 2e3e a5d4 2c3e 3d19 bcbd 3121 333e
000001b0: ff7f c2b9 662d 363e f385 633d ae4e 0a3d
000001c0: c364 073d f7ac 9bbc 58a5 febd 49b0 233e
000001d0: 28ea 443d f1b4 25be 9d4a acbd 20cd 7cbd
000001e0: d580 41be 3a2c 78bd b5e5 123d 15ef a23d
000001f0: 68d2 d7bc 37cb ac3d cbfa 5b3c e6de d93c
00000200: 1fe0 523d a1cf 5bbd 56d5 e93d 3635 99bc
00000210: 6e7a 6c3e a867 113e cd7d bfbd 58d6 ad39
00000220: 8609 223d 4ade 0fbe 4892 ba3c 2823 073e
00000230: 474e 0abe 0745 adbc 5e79 633d 6972 d3bc
00000240: b99b 02bd f5eb bc3d 29b1 a43b 53c3 f9bd
00000250: b975 0fbd 3d5a d4bd f981 3d3c 9ac4 0cbe
00000260: cb8b 31be bb3a 46be 4816 0bbd 53b6 a5bc
00000270: aba2 47be 46e6 5dbe 64e8 603d df7f a6bd
00000280: ed98 a33d 76ca e43d 2ca3 b1bd 507e c9bd
00000290: 36bf 0c3c f7cd 553c 963d ad3d 6ac4 d13d
000002a0: 8215 e9bd ff03 9abd 2592 9f3d 9d68 883d
000002b0: 9f7b 12bd eb39 4fbd 8c3f 12be e8c2 243e
000002c0: 85d3 a0bd c8df ba3c 9089 bdbd eadf 21bd
000002d0: 7152 c8bd e001 39be 78de 8cbe b910 66be
000002e0: ce88 dabd 46fb 023d c953 65be 4fc5 adbd
000002f0: 2731 26be da7b 7fbc f01e 8dbe b020 52be
00000300: d874 013e c039 6cbd 89cf 4fbe 9330 58bd
00000310: c465 22be 686c 00be 3b4c 25be 8a5b 06be
00000320: 46bb 353d 3e1f 08bd 0667 edbd c021 1ebe
00000330: c2ce d1bd 4e9b b7bd 60b5 07be aaf2 8f3d
00000340: 7b94 02be ce86 2dbe 438b 123d 0de7 88bd
00000350: 3fbf 71be ae50 a73b 5c8d b3bd d2e8 b1be
00000360: 8412 83be 1658 76be db30 3ebe 0867 10be
00000370: 7de8 34be 16e6 2dbd d1dd e4bd 853e 343d
00000380: 634b f43d 99f2 333e 05c1 34bd c949 123d
00000390: 08a3 fc3c 952a 2abe 43b4 ca3d 8255 8bba
000003a0: 29b7 023d 96b8 27bd ae65 49bd ac3b 92bc
000003b0: f0fc 1dbd fe46 353d 077f ccbc 82ca a7bc
000003c0: 4b78 5fbe 5581 61be 9581 f9bd 3f9d a5be
000003d0: 23b9 61be b20c 83be 7250 37be b56d c1bc
000003e0: 97e4 3abd 3812 7f3d 5cb4 ba3c 2bcb d4bc
000003f0: af3b 1abe 8304 433b 976d 06be 8dd7 16be
0.0018798882 0.062141247 -0.060886938 0.035682064 0.06762819 -0.04136232 0.024099573 -0.01423226
-0.019115278 -0.097116195 -0.04419894 0.029937929 -0.05034879 -0.05155146 -0.06912527 0.02368205
-0.09483579 0.044318087 0.06345358 -0.07513648 0.06435952 0.046597898 -0.07027798 -0.028871646
0.014574394 0.09330153 -0.10372895 0.1550579 0.031582415 0.008291683 -0.10237849 -0.027019141
-0.1354416 0.021414181 0.097779796 -0.16118662 0.0071518966 0.02447459 0.033581693 0.14085226
0.065583445 -0.0054978873 0.027727878 -0.033683516 -0.1332548 -0.01602943 0.08288473 -0.07141843
-0.062295873 0.05831402 0.01642157 -0.120282084 -0.17755061 0.110431604 0.03245316 -0.07148362
0.07312564 -0.056779142 -0.013160821 0.16047952 -0.0012076913 -0.03514299 0.16428927 0.023910241
0.11104944 0.053706978 0.032104548 -0.040294077 -0.041183285 0.008296525 0.11522025 -0.018225098
0.05935127 0.15814449 -0.07299837 0.08816624 -0.055624634 0.04769011 -0.02402546 0.0276104
0.07039546 -0.07929966 0.018315028 0.12229484 -0.016169459 -0.02446842 0.03842393 0.017762627
0.015614822 0.12010235 -0.06860481 0.049627542 0.06753524 0.010593492 0.074418716 0.06590571
-0.018873984 0.05152161 0.12892298 0.13162798 0.10566887 -0.012357018 0.16607906 0.093925804
0.17065893 0.16877992 -0.09184501 0.1749313 -0.00037097928 0.17790756 0.055547666 0.03376644
0.03305508 -0.019003375 -0.124338806 0.15985216 0.04807487 -0.16182305 -0.08412669 -0.06171906
-0.18896802 -0.060589053 0.035863597 0.079557575 -0.026345447 0.08437198 0.013426493 0.026595544
0.05148327 -0.053664807 0.11417644 -0.01870213 0.23093578 0.14199698 -0.093501665 0.0003315683
0.039559864 -0.1404964 0.02277483 0.13197005 -0.13506423 -0.021151079 0.055535667 -0.025811391
-0.03188679 0.09224693 0.005026002 -0.12195458 -0.03502438 -0.10368774 0.011566632 -0.13746873
-0.17338483 -0.19358341 -0.033956796 -0.02022854 -0.19495647 -0.21669874 0.054909125 -0.08129858
0.07988153 0.11171429 -0.08673701 -0.09838545 0.00859051 0.013049594 0.08459012 0.10242541
-0.113810554 -0.075202934 0.07791547 0.066605784 -0.035762426 -0.050592344 -0.14282054 0.16089976
-0.07852844 0.022811785 -0.092547536 -0.03952018 -0.097813495 -0.18067122 -0.2751348 -0.22467317
-0.10670625 0.031977914 -0.22395243 -0.08484899 -0.16229688 -0.015593493 -0.27562666 -0.20520282
0.12642229 -0.057672262 -0.20294012 -0.0527807 -0.15859133 -0.12541354 -0.16142361 -0.13120857
0.04436805 -0.03323292 -0.11591916 -0.15442562 -0.10244514 -0.08965169 -0.13252783 0.07028706
-0.12751953 -0.16945955 0.03577734 -0.066846944 -0.23608111 0.0051060533 -0.087671965 -0.3474794
-0.25600064 -0.2405704 -0.18573324 -0.14101803 -0.17666812 -0.042455755 -0.111751206 0.044004936
0.119284414 0.17573012 -0.04412939 0.0357149 0.030839458 -0.16617806 0.098976634 -0.0010630342
0.031912956 -0.04094752 -0.049169235 -0.01785072 -0.038571298 0.044257157 -0.024962915 -0.020482305
-0.21823232 -0.22021993 -0.12182919 -0.32346532 -0.2204328 -0.25595623 -0.17901781 -0.023611883
-0.045628157 0.062273234 0.02279108 -0.025975784 -0.1506183 0.0029757328 -0.13127743 -0.14730664
